…
[32m[2023-05-06 15:36:27]    INFO >> truncate valid.docstring_tokens to 30 (be_summarization.py:68, load_langpair_dataset())[0m
[32m[2023-05-06 15:36:27]    INFO >> loaded 18505 examples from: /home/erosiak/data_naturalcc/python_wan/summarization/data-mmap/valid.code_tokens (be_summarization.py:77, load_langpair_dataset())[0m
[32m[2023-05-06 15:36:27]    INFO >> loaded 18505 examples from: /home/erosiak/data_naturalcc/python_wan/summarization/data-mmap/valid.docstring_tokens (be_summarization.py:78, load_langpair_dataset())[0m
[32m[2023-05-06 15:36:27]    INFO >> NeuralTransformer(
  (encoder): NeuralTransformerEncoder(
    (embed_tokens): Embedding(50000, 512, padding_idx=0)
    (embed_positions): LearnedPositionalEmbedding(400, 512)
    (layers): ModuleList(
      (0): NeuralTransformerEncoderLayer(
        (self_attn): RelativeMultiheadAttention(
          (k_proj): Linear(in_features=512, out_features=512, bias=True)
          (v_proj): Linear(in_features=512, out_features=512, bias=True)
          (q_proj): Linear(in_features=512, out_features=512, bias=True)
          (out_proj): Linear(in_features=512, out_features=512, bias=True)
          (relative_position_keys): Embedding(65, 64)
          (relative_position_values): Embedding(65, 64)
        )
        (self_attn_layer_norm): LayerNorm((512,), eps=1e-08, elementwise_affine=True)
        (fc1): Linear(in_features=512, out_features=2048, bias=True)
        (fc2): Linear(in_features=2048, out_features=512, bias=True)
        (ff_layer_norm): LayerNorm((512,), eps=1e-08, elementwise_affine=True)
      )
      (1): NeuralTransformerEncoderLayer(
        (self_attn): RelativeMultiheadAttention(
          (k_proj): Linear(in_features=512, out_features=512, bias=True)
          (v_proj): Linear(in_features=512, out_features=512, bias=True)
          (q_proj): Linear(in_features=512, out_features=512, bias=True)
          (out_proj): Linear(in_features=512, out_features=512, bias=True)
          (relative_position_keys): Embedding(65, 64)
          (relative_position_values): Embedding(65, 64)
        )
        (self_attn_layer_norm): LayerNorm((512,), eps=1e-08, elementwise_affine=True)
        (fc1): Linear(in_features=512, out_features=2048, bias=True)
        (fc2): Linear(in_features=2048, out_features=512, bias=True)
        (ff_layer_norm): LayerNorm((512,), eps=1e-08, elementwise_affine=True)
      )
      (2): NeuralTransformerEncoderLayer(
        (self_attn): RelativeMultiheadAttention(
          (k_proj): Linear(in_features=512, out_features=512, bias=True)
          (v_proj): Linear(in_features=512, out_features=512, bias=True)
          (q_proj): Linear(in_features=512, out_features=512, bias=True)
          (out_proj): Linear(in_features=512, out_features=512, bias=True)
          (relative_position_keys): Embedding(65, 64)
          (relative_position_values): Embedding(65, 64)
        )
        (self_attn_layer_norm): LayerNorm((512,), eps=1e-08, elementwise_affine=True)
        (fc1): Linear(in_features=512, out_features=2048, bias=True)
        (fc2): Linear(in_features=2048, out_features=512, bias=True)
        (ff_layer_norm): LayerNorm((512,), eps=1e-08, elementwise_affine=True)
      )
      (3): NeuralTransformerEncoderLayer(
        (self_attn): RelativeMultiheadAttention(
          (k_proj): Linear(in_features=512, out_features=512, bias=True)
          (v_proj): Linear(in_features=512, out_features=512, bias=True)
          (q_proj): Linear(in_features=512, out_features=512, bias=True)
          (out_proj): Linear(in_features=512, out_features=512, bias=True)
          (relative_position_keys): Embedding(65, 64)
          (relative_position_values): Embedding(65, 64)
        )
        (self_attn_layer_norm): LayerNorm((512,), eps=1e-08, elementwise_affine=True)
        (fc1): Linear(in_features=512, out_features=2048, bias=True)
        (fc2): Linear(in_features=2048, out_features=512, bias=True)
        (ff_layer_norm): LayerNorm((512,), eps=1e-08, elementwise_affine=True)
      )
      (4): NeuralTransformerEncoderLayer(
        (self_attn): RelativeMultiheadAttention(
          (k_proj): Linear(in_features=512, out_features=512, bias=True)
          (v_proj): Linear(in_features=512, out_features=512, bias=True)
          (q_proj): Linear(in_features=512, out_features=512, bias=True)
          (out_proj): Linear(in_features=512, out_features=512, bias=True)
          (relative_position_keys): Embedding(65, 64)
          (relative_position_values): Embedding(65, 64)
        )
        (self_attn_layer_norm): LayerNorm((512,), eps=1e-08, elementwise_affine=True)
        (fc1): Linear(in_features=512, out_features=2048, bias=True)
        (fc2): Linear(in_features=2048, out_features=512, bias=True)
        (ff_layer_norm): LayerNorm((512,), eps=1e-08, elementwise_affine=True)
      )
      (5): NeuralTransformerEncoderLayer(
        (self_attn): RelativeMultiheadAttention(
          (k_proj): Linear(in_features=512, out_features=512, bias=True)
          (v_proj): Linear(in_features=512, out_features=512, bias=True)
          (q_proj): Linear(in_features=512, out_features=512, bias=True)
          (out_proj): Linear(in_features=512, out_features=512, bias=True)
          (relative_position_keys): Embedding(65, 64)
          (relative_position_values): Embedding(65, 64)
        )
        (self_attn_layer_norm): LayerNorm((512,), eps=1e-08, elementwise_affine=True)
        (fc1): Linear(in_features=512, out_features=2048, bias=True)
        (fc2): Linear(in_features=2048, out_features=512, bias=True)
        (ff_layer_norm): LayerNorm((512,), eps=1e-08, elementwise_affine=True)
      )
    )
  )
  (decoder): NeuralTransformerDecoder(
    (embed_tokens): Embedding(30000, 512, padding_idx=0)
    (embed_positions): LearnedPositionalEmbedding(32, 512)
    (layers): ModuleList(
      (0): NueralTransformerDecoderLayer(
        (self_attn): RelativeMultiheadAttention(
          (k_proj): Linear(in_features=512, out_features=512, bias=True)
          (v_proj): Linear(in_features=512, out_features=512, bias=True)
          (q_proj): Linear(in_features=512, out_features=512, bias=True)
          (out_proj): Linear(in_features=512, out_features=512, bias=True)
        )
        (self_attn_layer_norm): LayerNorm((512,), eps=1e-08, elementwise_affine=True)
        (encoder_attn): RelativeMultiheadAttention(
          (k_proj): Linear(in_features=512, out_features=512, bias=True)
          (v_proj): Linear(in_features=512, out_features=512, bias=True)
          (q_proj): Linear(in_features=512, out_features=512, bias=True)
          (out_proj): Linear(in_features=512, out_features=512, bias=True)
        )
        (encoder_attn_layer_norm): LayerNorm((512,), eps=1e-08, elementwise_affine=True)
        (fc1): Linear(in_features=512, out_features=2048, bias=True)
        (fc2): Linear(in_features=2048, out_features=512, bias=True)
        (ff_layer_norm): LayerNorm((512,), eps=1e-08, elementwise_affine=True)
      )
      (1): NueralTransformerDecoderLayer(
        (self_attn): RelativeMultiheadAttention(
          (k_proj): Linear(in_features=512, out_features=512, bias=True)
          (v_proj): Linear(in_features=512, out_features=512, bias=True)
          (q_proj): Linear(in_features=512, out_features=512, bias=True)
          (out_proj): Linear(in_features=512, out_features=512, bias=True)
        )
        (self_attn_layer_norm): LayerNorm((512,), eps=1e-08, elementwise_affine=True)
        (encoder_attn): RelativeMultiheadAttention(
          (k_proj): Linear(in_features=512, out_features=512, bias=True)
          (v_proj): Linear(in_features=512, out_features=512, bias=True)
          (q_proj): Linear(in_features=512, out_features=512, bias=True)
          (out_proj): Linear(in_features=512, out_features=512, bias=True)
        )
        (encoder_attn_layer_norm): LayerNorm((512,), eps=1e-08, elementwise_affine=True)
        (fc1): Linear(in_features=512, out_features=2048, bias=True)
        (fc2): Linear(in_features=2048, out_features=512, bias=True)
        (ff_layer_norm): LayerNorm((512,), eps=1e-08, elementwise_affine=True)
      )
      (2): NueralTransformerDecoderLayer(
        (self_attn): RelativeMultiheadAttention(
          (k_proj): Linear(in_features=512, out_features=512, bias=True)
          (v_proj): Linear(in_features=512, out_features=512, bias=True)
          (q_proj): Linear(in_features=512, out_features=512, bias=True)
          (out_proj): Linear(in_features=512, out_features=512, bias=True)
        )
        (self_attn_layer_norm): LayerNorm((512,), eps=1e-08, elementwise_affine=True)
        (encoder_attn): RelativeMultiheadAttention(
          (k_proj): Linear(in_features=512, out_features=512, bias=True)
          (v_proj): Linear(in_features=512, out_features=512, bias=True)
          (q_proj): Linear(in_features=512, out_features=512, bias=True)
          (out_proj): Linear(in_features=512, out_features=512, bias=True)
        )
        (encoder_attn_layer_norm): LayerNorm((512,), eps=1e-08, elementwise_affine=True)
        (fc1): Linear(in_features=512, out_features=2048, bias=True)
        (fc2): Linear(in_features=2048, out_features=512, bias=True)
        (ff_layer_norm): LayerNorm((512,), eps=1e-08, elementwise_affine=True)
      )
      (3): NueralTransformerDecoderLayer(
        (self_attn): RelativeMultiheadAttention(
          (k_proj): Linear(in_features=512, out_features=512, bias=True)
          (v_proj): Linear(in_features=512, out_features=512, bias=True)
          (q_proj): Linear(in_features=512, out_features=512, bias=True)
          (out_proj): Linear(in_features=512, out_features=512, bias=True)
        )
        (self_attn_layer_norm): LayerNorm((512,), eps=1e-08, elementwise_affine=True)
        (encoder_attn): RelativeMultiheadAttention(
          (k_proj): Linear(in_features=512, out_features=512, bias=True)
          (v_proj): Linear(in_features=512, out_features=512, bias=True)
          (q_proj): Linear(in_features=512, out_features=512, bias=True)
          (out_proj): Linear(in_features=512, out_features=512, bias=True)
        )
        (encoder_attn_layer_norm): LayerNorm((512,), eps=1e-08, elementwise_affine=True)
        (fc1): Linear(in_features=512, out_features=2048, bias=True)
        (fc2): Linear(in_features=2048, out_features=512, bias=True)
        (ff_layer_norm): LayerNorm((512,), eps=1e-08, elementwise_affine=True)
      )
      (4): NueralTransformerDecoderLayer(
        (self_attn): RelativeMultiheadAttention(
          (k_proj): Linear(in_features=512, out_features=512, bias=True)
          (v_proj): Linear(in_features=512, out_features=512, bias=True)
          (q_proj): Linear(in_features=512, out_features=512, bias=True)
          (out_proj): Linear(in_features=512, out_features=512, bias=True)
        )
        (self_attn_layer_norm): LayerNorm((512,), eps=1e-08, elementwise_affine=True)
        (encoder_attn): RelativeMultiheadAttention(
          (k_proj): Linear(in_features=512, out_features=512, bias=True)
          (v_proj): Linear(in_features=512, out_features=512, bias=True)
          (q_proj): Linear(in_features=512, out_features=512, bias=True)
          (out_proj): Linear(in_features=512, out_features=512, bias=True)
        )
        (encoder_attn_layer_norm): LayerNorm((512,), eps=1e-08, elementwise_affine=True)
        (fc1): Linear(in_features=512, out_features=2048, bias=True)
        (fc2): Linear(in_features=2048, out_features=512, bias=True)
        (ff_layer_norm): LayerNorm((512,), eps=1e-08, elementwise_affine=True)
      )
      (5): NueralTransformerDecoderLayer(
        (self_attn): RelativeMultiheadAttention(
          (k_proj): Linear(in_features=512, out_features=512, bias=True)
          (v_proj): Linear(in_features=512, out_features=512, bias=True)
          (q_proj): Linear(in_features=512, out_features=512, bias=True)
          (out_proj): Linear(in_features=512, out_features=512, bias=True)
        )
        (self_attn_layer_norm): LayerNorm((512,), eps=1e-08, elementwise_affine=True)
        (encoder_attn): RelativeMultiheadAttention(
          (k_proj): Linear(in_features=512, out_features=512, bias=True)
          (v_proj): Linear(in_features=512, out_features=512, bias=True)
          (q_proj): Linear(in_features=512, out_features=512, bias=True)
          (out_proj): Linear(in_features=512, out_features=512, bias=True)
        )
        (encoder_attn_layer_norm): LayerNorm((512,), eps=1e-08, elementwise_affine=True)
        (fc1): Linear(in_features=512, out_features=2048, bias=True)
        (fc2): Linear(in_features=2048, out_features=512, bias=True)
        (ff_layer_norm): LayerNorm((512,), eps=1e-08, elementwise_affine=True)
      )
    )
  )
) (train.py:211, single_main())[0m
[32m[2023-05-06 15:36:27]    INFO >> model neural_transformer, criterion NeuralTransformerCriterion (train.py:212, single_main())[0m
[32m[2023-05-06 15:36:27]    INFO >> num. model params: 85399600 (num. trained: 85399600) (train.py:213, single_main())[0m
[32m[2023-05-06 15:36:28]    INFO >> ***********************CUDA enviroments for all 1 workers*********************** (utils.py:530, pretty_print_cuda_env_list())[0m
…
